…
                                     use_sympy: False
                                     validation_metrics: 
                                     world_size: 1
INFO - 08/28/23 01:10:42 - 0:00:00 - The experiment will be stored in ./debug/wfqr7brjgg
                                     
INFO - 08/28/23 01:10:42 - 0:00:00 - Running command: python train.py --cpu true --max_ops=10

INFO - 08/28/23 01:10:42 - 0:00:00 - vocabulary: 10011 input words, 2021 output_words
INFO - 08/28/23 01:10:42 - 0:00:00 - Training tasks: recurrence
DEBUG - 08/28/23 01:10:42 - 0:00:00 - TransformerModel(
                                        (position_embeddings): Embedding(4096, 128)
                                        (embeddings): Embedding(10011, 128, padding_idx=2014)
                                        (layer_norm_emb): LayerNorm((128,), eps=1e-12, elementwise_affine=True)
                                        (attentions): ModuleList(
                                          (0-1): 2 x MultiHeadAttention(
                                            (q_lin): Linear(in_features=128, out_features=128, bias=True)
                                            (k_lin): Linear(in_features=128, out_features=128, bias=True)
                                            (v_lin): Linear(in_features=128, out_features=128, bias=True)
                                            (out_lin): Linear(in_features=128, out_features=128, bias=True)
                                          )
                                        )
                                        (layer_norm1): ModuleList(
                                          (0-1): 2 x LayerNorm((128,), eps=1e-12, elementwise_affine=True)
                                        )
                                        (ffns): ModuleList(
                                          (0-1): 2 x TransformerFFN(
                                            (midlin): ModuleList()
                                            (lin1): Linear(in_features=128, out_features=512, bias=True)
                                            (lin2): Linear(in_features=512, out_features=128, bias=True)
                                          )
                                        )
                                        (layer_norm2): ModuleList(
                                          (0-1): 2 x LayerNorm((128,), eps=1e-12, elementwise_affine=True)
                                        )
                                      ): TransformerModel(
                                        (position_embeddings): Embedding(4096, 128)
                                        (embeddings): Embedding(10011, 128, padding_idx=2014)
                                        (layer_norm_emb): LayerNorm((128,), eps=1e-12, elementwise_affine=True)
                                        (attentions): ModuleList(
                                          (0-1): 2 x MultiHeadAttention(
                                            (q_lin): Linear(in_features=128, out_features=128, bias=True)
                                            (k_lin): Linear(in_features=128, out_features=128, bias=True)
                                            (v_lin): Linear(in_features=128, out_features=128, bias=True)
                                            (out_lin): Linear(in_features=128, out_features=128, bias=True)
                                          )
                                        )
                                        (layer_norm1): ModuleList(
                                          (0-1): 2 x LayerNorm((128,), eps=1e-12, elementwise_affine=True)
                                        )
                                        (ffns): ModuleList(
                                          (0-1): 2 x TransformerFFN(
                                            (midlin): ModuleList()
                                            (lin1): Linear(in_features=128, out_features=512, bias=True)
                                            (lin2): Linear(in_features=512, out_features=128, bias=True)
                                          )
                                        )
                                        (layer_norm2): ModuleList(
                                          (0-1): 2 x LayerNorm((128,), eps=1e-12, elementwise_affine=True)
                                        )
                                      )
DEBUG - 08/28/23 01:10:42 - 0:00:00 - TransformerModel(
                                        (position_embeddings): Embedding(4096, 128)
                                        (embeddings): Embedding(2021, 128, padding_idx=2014)
                                        (layer_norm_emb): LayerNorm((128,), eps=1e-12, elementwise_affine=True)
                                        (attentions): ModuleList(
                                          (0-1): 2 x MultiHeadAttention(
                                            (q_lin): Linear(in_features=128, out_features=128, bias=True)
                                            (k_lin): Linear(in_features=128, out_features=128, bias=True)
                                            (v_lin): Linear(in_features=128, out_features=128, bias=True)
                                            (out_lin): Linear(in_features=128, out_features=128, bias=True)
                                          )
                                        )
                                        (layer_norm1): ModuleList(
                                          (0-1): 2 x LayerNorm((128,), eps=1e-12, elementwise_affine=True)
                                        )
                                        (ffns): ModuleList(
                                          (0-1): 2 x TransformerFFN(
                                            (midlin): ModuleList()
                                            (lin1): Linear(in_features=128, out_features=512, bias=True)
                                            (lin2): Linear(in_features=512, out_features=128, bias=True)
                                          )
                                        )
                                        (layer_norm2): ModuleList(
                                          (0-1): 2 x LayerNorm((128,), eps=1e-12, elementwise_affine=True)
                                        )
                                        (layer_norm15): ModuleList(
                                          (0-1): 2 x LayerNorm((128,), eps=1e-12, elementwise_affine=True)
                                        )
                                        (encoder_attn): ModuleList(
                                          (0-1): 2 x MultiHeadAttention(
                                            (q_lin): Linear(in_features=128, out_features=128, bias=True)
                                            (k_lin): Linear(in_features=128, out_features=128, bias=True)
                                            (v_lin): Linear(in_features=128, out_features=128, bias=True)
                                            (out_lin): Linear(in_features=128, out_features=128, bias=True)
                                          )
                                        )
                                        (proj): Linear(in_features=128, out_features=2021, bias=True)
                                      ): TransformerModel(
                                        (position_embeddings): Embedding(4096, 128)
                                        (embeddings): Embedding(2021, 128, padding_idx=2014)
                                        (layer_norm_emb): LayerNorm((128,), eps=1e-12, elementwise_affine=True)
                                        (attentions): ModuleList(
                                          (0-1): 2 x MultiHeadAttention(
                                            (q_lin): Linear(in_features=128, out_features=128, bias=True)
                                            (k_lin): Linear(in_features=128, out_features=128, bias=True)
                                            (v_lin): Linear(in_features=128, out_features=128, bias=True)
                                            (out_lin): Linear(in_features=128, out_features=128, bias=True)
                                          )
                                        )
                                        (layer_norm1): ModuleList(
                                          (0-1): 2 x LayerNorm((128,), eps=1e-12, elementwise_affine=True)
                                        )
                                        (ffns): ModuleList(
                                          (0-1): 2 x TransformerFFN(
                                            (midlin): ModuleList()
                                            (lin1): Linear(in_features=128, out_features=512, bias=True)
                                            (lin2): Linear(in_features=512, out_features=128, bias=True)
                                          )
                                        )
                                        (layer_norm2): ModuleList(
                                          (0-1): 2 x LayerNorm((128,), eps=1e-12, elementwise_affine=True)
                                        )
                                        (layer_norm15): ModuleList(
                                          (0-1): 2 x LayerNorm((128,), eps=1e-12, elementwise_affine=True)
                                        )
                                        (encoder_attn): ModuleList(
                                          (0-1): 2 x MultiHeadAttention(
                                            (q_lin): Linear(in_features=128, out_features=128, bias=True)
                                            (k_lin): Linear(in_features=128, out_features=128, bias=True)
                                            (v_lin): Linear(in_features=128, out_features=128, bias=True)
                                            (out_lin): Linear(in_features=128, out_features=128, bias=True)
                                          )
                                        )
                                        (proj): Linear(in_features=128, out_features=2021, bias=True)
                                      )
INFO - 08/28/23 01:10:42 - 0:00:00 - Number of parameters (encoder): 2202496
INFO - 08/28/23 01:10:42 - 0:00:00 - Number of parameters (decoder): 1314405
INFO - 08/28/23 01:10:42 - 0:00:00 - Found 93 parameters in model.
INFO - 08/28/23 01:10:42 - 0:00:00 - Optimizer: <class 'src.optim.AdamInverseSqrtWithWarmup'>
…
